…
enerating train mixed profiles: #>  #> === Generating test mixed profiles: #>  #> DONE # training of DDLS model SDDLS <- trainDeconvModel(   object = SDDLS,   batch.size = 10,   num.epochs = 5 ) #> === Training and test from stored data #>     Using only simulated mixed samples #>     Using only simulated mixed samples #> Model: \"SpatialDDLS\" #> _____________________________________________________________________ #> Layer (type)                   Output Shape               Param #     #> ===================================================================== #> Dense1 (Dense)                 (None, 200)                3200        #> _____________________________________________________________________ #> BatchNormalization1 (BatchNorm (None, 200)                800         #> _____________________________________________________________________ #> Activation1 (Activation)       (None, 200)                0           #> _____________________________________________________________________ #> Dropout1 (Dropout)             (None, 200)                0           #> _____________________________________________________________________ #> Dense2 (Dense)                 (None, 200)                40200       #> _____________________________________________________________________ #> BatchNormalization2 (BatchNorm (None, 200)                800         #> _____________________________________________________________________ #> Activation2 (Activation)       (None, 200)                0           #> _____________________________________________________________________ #> Dropout2 (Dropout)             (None, 200)                0           #> _____________________________________________________________________ #> Dense3 (Dense)                 (None, 6)                  1206        #> _____________________________________________________________________ #> BatchNormalization3 (BatchNorm (None, 6)                  24          #> _____________________________________________________________________ #> ActivationSoftmax (Activation) (None, 6)                  0           #> ===================================================================== #> Total params: 46,230 #> Trainable params: 45,418 #> Non-trainable params: 812 #> _____________________________________________________________________ #>  #> === Training DNN with 67 samples: #>  #> === Evaluating DNN in test data (33 samples) #>    - loss: 1.6731 #>    - accuracy: 0.1515 #>    - mean_absolute_e
…
 1 thread(s) #>  #> === Generating train mixed profiles: #>  #> === Generating test mixed profiles: #>  #> DONE SDDLS <- trainDeconvModel(   object = SDDLS,   batch.size = 12,   num.epochs = 5 ) #> === Training and test from stored data #>     Using only simulated mixed samples #>     Using only simulated mixed samples #> Model: \"SpatialDDLS\" #> _____________________________________________________________________ #> Layer (type)                   Output Shape               Param #     #> ===================================================================== #> Dense1 (Dense)                 (None, 200)                3200        #> _____________________________________________________________________ #> BatchNormalization1 (BatchNorm (None, 200)                800         #> _____________________________________________________________________ #> Activation1 (Activation)       (None, 200)                0           #> _____________________________________________________________________ #> Dropout1 (Dropout)             (None, 200)                0           #> _____________________________________________________________________ #> Dense2 (Dense)                 (None, 200)                40200       #> _____________________________________________________________________ #> BatchNormalization2 (BatchNorm (None, 200)                800         #> _____________________________________________________________________ #> Activation2 (Activation)       (None, 200)                0           #> _____________________________________________________________________ #> Dropout2 (Dropout)             (None, 200)                0           #> _____________________________________________________________________ #> Dense3 (Dense)                 (None, 2)                  402         #> _____________________________________________________________________ #> BatchNormalization3 (BatchNorm (None, 2)                  8           #> _____________________________________________________________________ #> ActivationSoftmax (Activation) (None, 2)                  0           #> ===================================================================== #> Total params: 45,410 #> Trainable params: 44,606 #> Non-trainable params: 804 #> _____________________________________________________________________ #>  #> === Training DNN with 34 samples: #>  #> === Evaluating DNN in test data (16 samples) #>    - loss: NaN #>    - accuracy: 0.5 #>    - mean_absolute_error: 
…
